…
  File "C:\Users\Jinsoo\Anaconda3\envs\torch\lib\site-packages\IPython\core\interactiveshell.py", line 3417, in run_code
    exec(code_obj, self.user_global_ns, self.user_ns)
  File "<ipython-input-11-55567cce0188>", line 1, in <module>
    feature.grad.item()
AttributeError: 'NoneType' object has no attribute 'item'
Traceback (most recent call last):
  File "C:\Users\Jinsoo\Anaconda3\envs\torch\lib\site-packages\IPython\core\interactiveshell.py", line 3417, in run_code
    exec(code_obj, self.user_global_ns, self.user_ns)
  File "<ipython-input-12-85e9406ff794>", line 1, in <module>
    feature.grad.item
AttributeError: 'NoneType' object has no attribute 'item'
Out[15]: 
Base(
  (input): Linear(in_features=784, out_features=200, bias=True)
  (batch0): BatchNorm1d(200, eps=1e-05, momentum=0.1, affine=True, track_running_stats=True)
  (hidden1): Linear(in_features=200, out_features=200, bias=True)
  (batch1): BatchNorm1d(200, eps=1e-05, momentum=0.1, affine=True, track_running_stats=True)
  (hidden2): Linear(in_features=200, out_features=200, bias=True)
  (batch2): BatchNorm1d(200, eps=1e-05, momentum=0.1, affine=True, track_running_stats=True)
  (hidden3): Linear(in_features=200, out_features=200, bias=True)
  (batch3): BatchNorm1d(200, eps=1e-05, momentum=0.1, affine=True, track_running_stats=True)
  (final): Linear(in_features=200, out_features=10, bias=True)
  (relu): ReLU(inplace=True)
)
Out[24]: 
tensor([[-8.0355e-04,  4.5133e-04,  9.7867e-05,  ..., -6.0062e-04,
         -2.2580e-04,  2.9740e-04],
        [ 4.4304e-04,  5.5054e-04, -1.1981e-04,  ...,  5.1293e-04,
         -6.7633e-05, -1.4030e-05],
        [-2.0765e-05,  5.4326e-04,  5.4063e-04,  ..., -5.9050e-05,
          1.0179e-04, -1.8045e-04],
        ...,
        [-8.3998e-05, -2.9521e-05, -4.9620e-04,  ..., -3.7156e-04,
         -2.3215e-05, -2.1693e-04],
        [-1.0964e-03, -7.2930e-04,  5.9930e-04,  ..., -3.1547e-04,
          2.4615e-04,  1.0207e-03],
        [-9.4639e-05, -9.0388e-04,  9.4388e-05,  ..., -8.2293e-04,
         -3.3148e-04,  4.1816e-05]], device='cuda:0')
Out[25]: torch.Size([100, 784])
Out[26]: 
Base(
  (input): Linear(in_features=784, out_features=200, bias=True)
  (batch0): BatchNorm1d(200, eps=1e-05, momentum=0.1, affine=True, track_running_stats=True)
  (hidden1): Linear(in_features=200, out_features=200, bias=True)
  (batch1): BatchNorm1d(200, eps=1e-05, momentum=0.1, affine=True, track_running_stats=True)
  (hidden2): Linear(in_features=200, out_features=200, bias=True)
  (batch2): BatchNorm1d(200, eps=1e-05, momentum=0.1, affine=True, track_running_stats=True)
  (hidden3): Linear(in_features=200, out_features=200, bias=True)
  (batch3): BatchNorm1d(200, eps=1e-05, momentum=0.1, affine=True, track_running_stats=True)
  (final): Linear(in_features=200, out_features=10, bias=True)
  (relu): ReLU(inplace=True)
)
Traceback (most recent call last):
  File "C:\Users\Jinsoo\Anaconda3\envs\torch\lib\site-packages\IPython\core\interactiveshell.py", line 3417, in run_code
    exec(code_obj, self.user_global_ns, self.user_ns)
  File "<ipython-input-33-3ade8efe3380>", line 1, in <module>
    feature.grad.data
AttributeError: 'NoneType' object has no attribute 'data'
Out[34]: 
Base(
  (input): Linear(in_features=784, out_features=200, bias=True)
  (batch0): BatchNorm1d(200, eps=1e-05, momentum=0.1, affine=True, track_running_stats=True)
  (hidden1): Linear(in_features=200, out_features=200, bias=True)
  (batch1): BatchNorm1d(200, eps=1e-05, momentum=0.1, affine=True, track_running_stats=True)
  (hidden2): Linear(in_features=200, out_features=200, bias=True)
  (batch2): BatchNorm1d(200, eps=1e-05, momentum=0.1, affine=True, track_running_stats=True)
  (hidden3): Linear(in_features=200, out_features=200, bias=True)
  (batch3): BatchNorm1d(200, eps=1e-05, momentum=0.1, affine=True, track_running_stats=True)
  (final): Linear(in_features=200, out_features=10, bias=True)
  (relu): ReLU(inplace=True)
)
Traceback (most recent call last):
  File "C:\Users\Jinsoo\Anaconda3\envs\torch\lib\site-packages\IPython\core\interactiveshell.py", line 3417, in run_code
    exec(code_obj, self.user_global_ns, self.user_ns)
  File "<ipython-input-41-3ade8efe3380>", line 1, in <module>
    feature.grad.data
AttributeError: 'NoneType' object has no attribute 'data'
…
          8.4089e-05,  8.0282e-05],
        [-1.2645e-04, -1.5006e-04,  3.1296e-04,  ..., -1.5400e-04,
          1.6925e-04, -2.8220e-04],
        [-6.1737e-04,  2.8268e-04,  2.6506e-04,  ...,  5.7751e-04,
         -3.0282e-04,  8.3774e-05],
        ...,
        [ 1.0568e-04,  3.7792e-04,  5.3112e-04,  ..., -1.4561e-04,
          4.5511e-05,  2.0142e-04],
        [-3.0624e-04, -2.1129e-05,  3.4199e-04,  ...,  8.7319e-05,
          1.7932e-04,  2.2900e-04],
        [ 9.0535e-05, -1.9493e-04, -6.2406e-04,  ..., -3.3506e-04,
         -4.3002e-04,  3.5699e-05]], device='cuda:0')
Out[46]: 
Base(
  (input): Linear(in_features=784, out_features=200, bias=True)
  (batch0): BatchNorm1d(200, eps=1e-05, momentum=0.1, affine=True, track_running_stats=True)
  (hidden1): Linear(in_features=200, out_features=200, bias=True)
  (batch1): BatchNorm1d(200, eps=1e-05, momentum=0.1, affine=True, track_running_stats=True)
  (hidden2): Linear(in_features=200, out_features=200, bias=True)
  (batch2): BatchNorm1d(200, eps=1e-05, momentum=0.1, affine=True, track_running_stats=True)
  (hidden3): Linear(in_features=200, out_features=200, bias=True)
  (batch3): BatchNorm1d(200, eps=1e-05, momentum=0.1, affine=True, track_running_stats=True)
  (final): Linear(in_features=200, out_features=10, bias=True)
  (relu): ReLU(inplace=True)
)
Traceback (most recent call last):
  File "C:\Users\Jinsoo\Anaconda3\envs\torch\lib\site-packages\IPython\core\interactiveshell.py", line 3417, in run_code
    exec(code_obj, self.user_global_ns, self.user_ns)
  File "<ipython-input-54-4ec2431efd94>", line 1, in <module>
    feautre.grad
NameError: name 'feautre' is not defined
…
  File "C:\Users\Jinsoo\Anaconda3\envs\torch\lib\site-packages\IPython\core\interactiveshell.py", line 3417, in run_code
    exec(code_obj, self.user_global_ns, self.user_ns)
  File "<ipython-input-97-2a07cfc4ce99>", line 1, in <module>
    torch.autograd.grad(loss1,adv_feature,only_inputs=True,grad_outputs=None)
  File "C:\Users\Jinsoo\Anaconda3\envs\torch\lib\site-packages\torch\autograd\__init__.py", line 192, in grad
    inputs, allow_unused)
RuntimeError: Trying to backward through the graph a second time, but the saved intermediate results have already been freed. Specify retain_graph=True when calling backward the first time.
Out[99]: 
Base(
  (input): Linear(in_features=784, out_features=200, bias=True)
  (batch0): BatchNorm1d(200, eps=1e-05, momentum=0.1, affine=True, track_running_stats=True)
  (hidden1): Linear(in_features=200, out_features=200, bias=True)
  (batch1): BatchNorm1d(200, eps=1e-05, momentum=0.1, affine=True, track_running_stats=True)
  (hidden2): Linear(in_features=200, out_features=200, bias=True)
  (batch2): BatchNorm1d(200, eps=1e-05, momentum=0.1, affine=True, track_running_stats=True)
  (hidden3): Linear(in_features=200, out_features=200, bias=True)
  (batch3): BatchNorm1d(200, eps=1e-05, momentum=0.1, affine=True, track_running_stats=True)
  (final): Linear(in_features=200, out_features=10, bias=True)
  (relu): ReLU(inplace=True)
)
Out[103]: 
Base(
  (input): Linear(in_features=784, out_features=200, bias=True)
  (batch0): BatchNorm1d(200, eps=1e-05, momentum=0.1, affine=True, track_running_stats=True)
  (hidden1): Linear(in_features=200, out_features=200, bias=True)
  (batch1): BatchNorm1d(200, eps=1e-05, momentum=0.1, affine=True, track_running_stats=True)
  (hidden2): Linear(in_features=200, out_features=200, bias=True)
  (batch2): BatchNorm1d(200, eps=1e-05, momentum=0.1, affine=True, track_running_stats=True)
  (hidden3): Linear(in_features=200, out_features=200, bias=True)
  (batch3): BatchNorm1d(200, eps=1e-05, momentum=0.1, affine=True, track_running_stats=True)
  (final): Linear(in_features=200, out_features=10, bias=True)
  (relu): ReLU(inplace=True)
)
Traceback (most recent call last):
  File "C:\Users\Jinsoo\Anaconda3\envs\torch\lib\site-packages\IPython\core\interactiveshell.py", line 3417, in run_code
    exec(code_obj, self.user_global_ns, self.user_ns)
  File "<ipython-input-111-232612460cee>", line 1, in <module>
    grads = torch.autograd.grad(loss1,adv_feature,only_inputs=True)
…
